scripts/models/ppo_terrain_nav_final/policy.pth (torch, 55231 bytes, 11 tensors)

mlp_extractor.policy_net.0.weight f4 [64, 28]
00000000: 5a60 3f3e cc55 8b3e 8850 11be 9541 f73d
00000010: 4f16 ffbd 5e6f 213e 874a 063d 2524 bcbd
00000020: 3743 97be 17ec 293d 1c13 2a3d a507 44bd
00000030: ea0b f33d 6b6a b5bd 661d 1abc c00d 0abd
00000040: 04cb 6abe a093 8f3b 1cca f83d 71c3 e8be
00000050: c83e a2bd 46bb 06bd 5ac6 60be 953c 293d
00000060: 152a b6be a462 313d 406c 92be 0f86 8cbc
00000070: 95f5 a03c efbb c1bd 59ec 913d aba8 363e
00000080: 608d 4a3b 639b 69be 3a19 dd3d bbe8 403e
00000090: 6b47 5abe b3b2 f23b 8432 8f3e 440e 863e
000000a0: f85a c83b 59aa dc3c 85c9 013e 44d5 6cbe
000000b0: cb85 89bd 3466 2cbe f433 a43d 1d46 4e3d
000000c0: a76d 303e bc7f e4bb 0775 5b3e b144 8a3e
000000d0: f62d 5b3d c54e 933d 5f4d b63e b407 37be
000000e0: 0251 b3bd 90c1 74be 6ee8 e43d 4150 b73e
000000f0: 8a2c 05be fba2 d13c a8b8 873e 7339 5a3d
00000100: ccb2 46be e95e 383e d852 57bc b359 be3c
00000110: 2611 28be ccd5 b63c 796a 523e 402b 99be
00000120: eeaa ad3c 0f41 3dbd 92a7 6d3e 0b31 8e3c
00000130: c1c7 7b3d 02cb 863e 8512 8bbd c2bf 35be
00000140: bb28 15be bfad ca3d 7f6e 6e3e d522 903e
00000150: f57f b83c be49 2ebe 6573 093d f01f 873d
00000160: eb42 26be ec15 8dbd 53dd debe fec0 433d
00000170: 921d 5e3e e1b5 96bb 8d08 85bd d061 ea3e
00000180: d720 e03d e25a 943d 7688 bf3d 9e4e 40be
00000190: e475 623e 37b6 b23e 9899 d9bc 9689 b5bb
000001a0: 4437 91bd c437 8cbd 84ec f73d c109 5f3c
000001b0: c716 35be 92ad 9c3d 50d1 f2bd 5caa 553d
000001c0: acb3 11be 8223 a9bd d97a 213d d9b1 683c
000001d0: 6da5 a8be 1ccc f53c 528d 903e f5ae 6e3e
000001e0: e974 f73d de2b 313d 3fa4 38be 0448 323e
000001f0: 5b45 0abe b1de 1abe 5475 9b3e 056b 783d
00000200: c626 323e 05c9 a23d 6a5a 6dbe 5d50 31be
00000210: 738a ae3e 946c 9d3e 9393 373d 4dce 103e
00000220: f332 c43c 44e3 6f3d 3c81 41be 8873 563e
00000230: 11c5 0c3d b061 ab3d 61cf c73e 3ab4 b4be
00000240: f6b9 8dbe c6b8 46bd 2278 c93d 62c1 d53a
00000250: d330 2b3e b420 343e b210 6dbe f74f ab3d
00000260: 3c02 96be 937d 9dbe 2640 2b3d e709 87be
00000270: 1056 3bbe da7f a8bc 55a7 983e 65d0 0bbd
00000280: 4ad3 fcbd 35a0 7bbe f424 973d ba70 67be
00000290: c6fa 063e 610e 4f3e 07a9 52bd 66f5 053d
000002a0: 8850 963c 6dfe 8bbe f251 27be 300d 0b3e
000002b0: 2423 6bbe f67a 223e 0933 d7bd ec5a acbe
000002c0: cffe 34be 72c7 7e3e 9996 b63e 57af 2dbb
000002d0: d61b 943b b377 d8bd 3407 a2bd 7e17 153e
000002e0: a38d 373e 103c ea3d 9385 233e b4d6 4c3c
000002f0: b577 69be 1e16 24bd db39 19be 0c07 9d3c
00000300: f8be cd3e 3abd 49bd 3165 2d3e 7e78 4e3e
00000310: a20e 163e c358 813e 9da6 91bd be49 50be
00000320: 8754 ab3e 7486 e7bc 0162 56be ef90 01bf
00000330: 848a 2e3e 6b74 60be ad9b ccbd f285 8dbc
00000340: 5509 51bd fa46 8fbc 6510 a53b 5b15 0bbe
00000350: 82bf b6bd 081f 633e 0e9e 2c3a 1c99 3cbd
00000360: b74e d63e 03be a7bd ae57 913d 2620 0bbe
00000370: 8135 973b 797a 9fbd 512a 6c3e dda9 cf3c
00000380: 076c 723e 9a25 b13c 9b2f b43d 178a ad3d
00000390: 1b04 8abd 8ef8 1d3e 2c19 443d e23b 993e
000003a0: a0e6 03be 8755 3abe 980e a5bd 58e6 42bd
000003b0: 530c 18be c407 0f3e 2133 a8be 9fc3 33be
000003c0: 8e5c 9e3d 3aeb 353d 4809 823e 0b1c cb3e
000003d0: 295d 343d 8834 cf3d 5be1 3cbe 99df c83d
000003e0: f30a 1dbd 79d8 04bf c91c 243c e623 05be
000003f0: f4d3 943a 29b3 a03e 1ab9 083e 0026 923e
0.18689099 0.27213895 -0.14190876 0.12073056 -0.12455427 0.1576514 0.03278592 -0.091865815
-0.29543468 0.04148492 0.04152213 -0.047858853 0.11867507 -0.08858188 -0.009406423 -0.03370452
-0.22929007 0.004381612 0.12147924 -0.4546161 -0.07922131 -0.03289344 -0.21950665 0.04131754
-0.3557898 0.04330696 -0.28598213 -0.017153768 0.019648353 -0.094596736 0.07125158 0.17837779
0.003090702 -0.22813182 0.10795827 0.1883878 -0.21316306 0.0074065565 0.27968228 0.2618276
0.00611436 0.026936697 0.1267453 -0.2312823 -0.06714972 -0.16835862 0.08017722 0.050359834
0.17229329 -0.006973235 0.21431361 0.27005532 0.05351063 0.071927585 0.35605904 -0.17874032
-0.087556854 -0.23901963 0.11177145 0.35803416 -0.13005272 0.02559041 0.2650807 0.053277444
-0.19404143 0.18004955 -0.01314231 0.023236131 -0.16412792 0.022318743 0.20548429 -0.2991581
0.02119967 -0.046204623 0.23208454 0.01735737 0.061469797 0.26326758 -0.06790642 -0.17748931
-0.14566319 0.09896421 0.23284338 0.28151575 0.022521952 -0.17020318 0.033557314 0.065978885
-0.16236465 -0.06888947 -0.43528232 0.047791474 0.21690968 -0.0045993184 -0.064957716 0.4577775
0.10943764 0.07243897 0.093522 -0.1877999 0.22115284 0.34904644 -0.026562497 -0.005540083
-0.07090619 -0.06846574 0.12105659 0.013613165 -0.1768447 0.076502934 -0.118563294 0.05216442
-0.14228696 -0.08258726 0.039423797 0.014202558 -0.3293871 0.030004553 0.2823282 0.23308928
0.12082846 0.043254726 -0.18031405 0.17410284 -0.1350302 -0.15124013 0.30362952 0.060648937
0.17397603 0.07948498 -0.23179021 -0.17315812 0.34090003 0.307469 0.044818472 0.14141198
0.023950076 0.058566347 -0.18896955 0.20942509 0.034367625 0.08368242 0.39025405 -0.35293752
-0.2768094 -0.048516057 0.09837367 0.0016308243 0.16717844 0.175906 -0.231509 0.083648615
-0.2929858 -0.30759868 0.041809224 -0.26374742 -0.18294549 -0.020568777 0.29815164 -0.034134287
-0.12344988 -0.24572833 0.07380095 -0.22601596 0.131816 0.20220329 -0.05143073 0.032704733
0.018348947 -0.2734255 -0.16339853 0.1357925 -0.22962624 0.15867218 -0.10507781 -0.33663118
-0.17675327 0.2488077 0.35661772 -0.0026502216 0.00451992 -0.10569706 -0.0791153 0.14559743
0.17925124 0.11437237 0.15968923 0.012502361 -0.22799571 -0.040060155 -0.14963476 0.0191684
0.4018476 -0.049252726 0.16933133 0.20163152 0.1465402 0.25263032 -0.07111857 -0.2034063
0.33462927 -0.028262354 -0.20935823 -0.50611776 0.17045027 -0.2191941 -0.0999063 -0.017275784
-0.05103429 -0.017489899 0.005037355 -0.13582365 -0.08923246 0.22179806 0.0006584831 -0.046044454
0.4185693 -0.08190539 0.07096802 -0.13586482 0.0046145325 -0.07787032 0.23063017 0.025349552
0.23674022 0.021624375 0.087981425 0.08473604 -0.06739064 0.15426847 0.04787557 0.299285
-0.12880945 -0.18196689 -0.08059424 -0.047582954 -0.14848451 0.13967806 -0.32851508 -0.17555092
0.07732497 0.044413783 0.25397706 0.39669833 0.044034157 0.101174414 -0.18445341 0.09808273
-0.03834052 -0.5189281 0.010016629 -0.13001975 0.0011354671 0.31386688 0.1335186 0.28544617

mlp_extractor.policy_net.0.bias f4 [64]
00000000: c29e d5ba 437c 103b 0499 d2ba 1ea8 933b
00000010: 0c36 c0ba 541f 753a f425 66bb 7e73 b33b
00000020: 72c9 673c d2ed 263a 545b e93b 85e4 a1ba
00000030: e9c7 1d3b b0d5 aa3b 91ea d7bb 8426 0d3b
00000040: 7d4f 813b 40a2 e53b 6cbe 8e3b 7654 07b9
00000050: d95d 403b 8e2d 09ba adeb 8b3b e868 68bc
00000060: e8e3 04bb 3072 2dba aa37 9c3b 292a c03c
00000070: c76c 2cb9 6101 97bb c08c 7bba ad3d 6039
00000080: 8a2d 1cbc 0b55 32bc 7c86 e23a 9c47 64bb
00000090: be0f af3a 1395 a038 ccc2 82ba 430b 8ebb
000000a0: 00b0 9a3a f248 063b bea6 143c 110f 1e3a
000000b0: 0c3a 29bc 2941 9b3b c5ae 48bb cc9f 063b
000000c0: 770e 903a c2c2 c5ba ba72 6b3b f35b 273c
000000d0: 86aa 6239 7f13 2f3b 46a1 25bc 9a11 243c
000000e0: 2448 6d3b 0a91 19b9 7386 b8b7 e52b 22bc
000000f0: 69e4 91bb 8256 4d3c 01b1 d6ba 2472 fbba
-0.0016297924 0.0022046722 -0.0016067331 0.004506125 -0.0014664545 0.00093506766 -0.0035117837 0.005476414
0.014147149 0.00063678354 0.007121483 -0.0012351429 0.0024075455 0.005213462 -0.006589242 0.002153785
0.0039462433 0.007007867 0.004356196 -0.00012906067 0.0029352813 -0.00052329234 0.004270038 -0.014185168
-0.0020277444 -0.00066164415 0.004767378 0.023457604 -0.00016443721 -0.0046083187 -0.00095958635 0.0002138528
-0.009532342 -0.010884534 0.0017282511 -0.0034832722 0.0013356132 7.657162e-05 -0.0009976267 -0.0043348386
0.001180172 0.0020490256 0.009072958 0.0006029467 -0.010328781 0.0047379923 -0.003062175 0.0020542024
0.0010990639 -0.001508795 0.0035926537 0.0102147935 0.00021616564 0.0026714501 -0.010109251 0.010013962
0.003620633 -0.00014645248 -2.1997117e-05 -0.009898161 -0.0044522774 0.012532832 -0.0016379656 -0.0019183797

mlp_extractor.policy_net.2.weight f4 [64, 64]
00000000: 0b0d d53d a725 cf3d d6e0 3abe 570b 7c3d
00000010: 1e10 a23d 02ad f93d 0d55 77be ad03 8ebe
00000020: d5f1 7dbb 6ba0 473d 348f 82be c9b9 6ebc
00000030: 0f89 6abd 1c7f e53d fc42 c53d 7e1a 16be
00000040: fcb3 0e3b 8b64 093e e912 72be cb82 b83d
00000050: 9ac1 a7bd f907 afbd a9aa 26be 95d8 6abe
00000060: 848e 19be 2909 95be 1ae6 6ebe 4fcf f5bc
00000070: 8a98 83be 800f 163d bf6e 39be d8a9 643c
00000080: a3ce 4b3e d5e1 89be 8aa5 5d3e 5254 223e
00000090: 4c4e e1bd 80ad 0fbc 7dc6 273e d877 e73c
000000a0: dffd 143e 9253 5abe 108a d43e 3bd2 f6bd
000000b0: c32e 74be 015a 103e f306 42be 98d0 8fbe
000000c0: f4e4 e0ba 71a7 7ebe 0fa4 fd3c 223c 7a3e
000000d0: 5502 cdbe 475e 6c3d 8926 393e 62c0 5cbc
000000e0: 48f9 2c3d 7d7e e13d fd3b d1bc 93e1 443e
000000f0: 3582 d4be 5e10 7ebe 4c6c a03d afc3 273d
00000100: 816b 81be fda0 313e b29a 2dbe 4fa9 823e
00000110: 7a03 1b3e 91bf 45be 932f 813d a280 53be
00000120: 757f a73d 5cfa 48be 3726 4cbb 2272 933e
00000130: 3d75 8ebe 7ffd e33c b31d b7bd 9b46 a8bd
00000140: 2adf d43d ceac 763e 553d bfbd ef73 c23e
00000150: a078 2e3e ec11 93bc adaa 3e3e 1cfa 863e
00000160: 4920 b7bb 6b3a c0bd 8e32 543e 6512 9bbe
00000170: 734e a73d 7a99 f5bb 429a 913d c346 19bd
00000180: ebfd 023d c9bc a43d 2dd6 713e 729f 3e3e
00000190: 1c34 e5bd 2e28 59bd 51be 71bd 3e75 2f3e
000001a0: e213 233e 6eee eb3d 4567 b2be 2935 103e
000001b0: 56d8 9a3d 131d 1d3e bf09 863e 90bf babe
000001c0: 1b1b 353d a7c6 543e 381a 06be bca2 b73d
000001d0: 16ce 83be 2290 bfbd 380f d23d 434b 623e
000001e0: 5857 a53d 1645 2b3e d58c 3fbd 8bda acbe
000001f0: b3fe 213e 5243 abbe aee6 14be 2304 9cbd
00000200: e98f 80be 8c3c 303d e430 d13e 8558 883b
00000210: 749a 5cbe 7359 fdbc c94c 9f3d 8e93 d43e
00000220: 4fb4 763e 1f0e 09be 49b2 43be 6bf1 5a3a
00000230: bb22 0ebe e57b 0cbe b59c ffbd fbfc 8cbd
00000240: 426a 963d 453d e93d 3a62 2dbd 523e 6abe
00000250: 94f3 743e 406d 33be fa86 5ebd 9ffe 03be
00000260: 3074 0cbe 4fb6 d8bc 7b77 dcbd 8458 0f3d
00000270: ebf7 2d3d 5e95 cf3e b80d 51be 40b9 383e
00000280: 809d abbd c3d5 1f3c 1119 05bf 983c c8bd
00000290: 0844 6fbc 0c4c 233e 9aec 13be 8e58 db39
000002a0: f698 b03e d4b5 17bc 2aa1 24bc 2352 3fbd
000002b0: 8ac9 403e 7c99 8a3e d39e fdbb 7186 39be
000002c0: dbac 14bd dd3c a43c 26d5 6fbd 37d5 383e
000002d0: e518 c2be 6720 6a3e c9ee 1fbe a4e1 923d
000002e0: 8eb3 4b38 99c8 1cbe bfb5 593e adc8 ab3b
000002f0: 7314 3cbd 0fea c8bd 5412 a93c 1558 673e
00000300: dc7b b7bd c766 87be c965 443e 57b5 e83e
00000310: 3365 9dbc dcb1 b2be 75c9 06bd fb29 d53d
00000320: d248 e43d 62b7 623e 51db 8e3d d7cb 063d
00000330: eb61 543d 8719 1cbe dbe6 923c 267f 6a3e
00000340: d9b1 783e 7adb 4cbe a7d0 cfbc e222 993e
00000350: f9de 45be a824 a4be b646 623e 15fb b03e
00000360: 68a8 75bd 4eda a3be 43a6 0b3e 876b 15b8
00000370: b10f cfbd 6725 a33b f61a d7be 172c 763d
00000380: ce3d 0d3d 2ae1 5bbc 5a45 f7bd 9b44 783d
00000390: feb9 483c fdbb 94be b95d 1b3d d37f cdbd
000003a0: 1b6e bf3d 3dce b6be eac8 3dbe b3aa 2ebe
000003b0: 68c3 dabc c2bb 68be a97f 0f3e 1980 10be
000003c0: 48b6 4abe d7aa f2bd 83af 933d 7634 933e
000003d0: 0a01 6b3e ce9e f63c c4d5 1a3e 167b bbbd
000003e0: d305 5f3e 40f1 00bd 6230 b0bc 86c7 4d3d
000003f0: 4778 ccbd 9d99 7f3e 6b54 96bd 55fc d1bd
0.104028784 0.101146035 -0.1824983 0.061534252 0.0791323 0.12191202 -0.24153538 -0.2773718
-0.003874888 0.04873697 -0.2549988 -0.014570662 -0.057259616 0.11205885 0.09631917 -0.14658543
0.002177476 0.1341726 -0.23640026 0.09009322 -0.081912234 -0.085464425 -0.16276039 -0.22934182
-0.14995772 -0.2910855 -0.23329964 -0.030006079 -0.25702316 0.036635876 -0.18108653 0.0139565095
0.19903044 -0.2693011 0.2164518 0.15852478 -0.11001262 -0.008769393 0.16384311 0.028255388
0.14549969 -0.21320942 0.41511583 -0.12051817 -0.23845963 0.14096834 -0.18947963 -0.28088832
-0.0017158077 -0.24868561 0.030962018 0.24437001 -0.40040842 0.057707097 0.18081106 -0.013473602
0.04222992 0.11010454 -0.0255413 0.19226675 -0.4150559 -0.24810931 0.07833156 0.040958103
-0.2527733 0.17346568 -0.16953543 0.25519797 0.15138045 -0.19311358 0.06307902 -0.20654538
0.081786074 -0.19626755 -0.0031150708 0.28798014 -0.2782382 0.027830837 -0.089412116 -0.08216592
0.10394128 0.24089357 -0.0933787 0.37979075 0.17038202 -0.017952882 0.18619795 0.26362693
-0.0055885655 -0.09386142 0.2072241 -0.3028747 0.0816926 -0.0074951025 0.071095005 -0.037421
0.031980436 0.080438204 0.23616858 0.18615511 -0.1119158 -0.053016834 -0.05901939 0.17134568
0.15925553 0.11520086 -0.34844413 0.14082779 0.07560794 0.15343122 0.2617931 -0.36474276
0.044215303 0.20778905 -0.13095939 0.08966586 -0.2574317 -0.09353663 0.10256809 0.22099023
0.080733 0.16725573 -0.046765167 -0.33760485 0.15819816 -0.334498 -0.14541122 -0.076179765
-0.25109795 0.043026492 0.40857613 0.004160943 -0.21543294 -0.030926442 0.077783175 0.41518825
0.2409222 -0.13384293 -0.19110979 0.0008352014 -0.13880436 -0.13719137 -0.12481061 -0.0688419
0.07344486 0.11388639 -0.042330004 -0.22875336 0.23921043 -0.17522144 -0.054327942 -0.12890099
-0.13716197 -0.026454119 -0.107649766 0.034996524 0.04247276 0.40543646 -0.2041539 0.18039417
-0.0837965 0.009755555 -0.51991373 -0.09777182 -0.014603622 0.15946978 -0.14445725 0.00041836913
0.344917 -0.00925966 -0.01004819 -0.04670919 0.18826881 0.27070224 -0.0077398806 -0.18117692
-0.03629766 0.020048553 -0.058552884 0.18050085 -0.37909618 0.22863923 -0.15618433 0.07171944
4.8566195e-05 -0.15310897 0.21260737 0.0052424283 -0.04591794 -0.09810268 0.020638622 0.22592194
-0.08959171 -0.264456 0.19179453 0.4545085 -0.019213295 -0.3490132 -0.03290697 0.10408398
0.11146702 0.22140267 0.06975425 0.03290924 0.051851194 -0.15244113 0.017932346 0.22900066
0.24286593 -0.20005599 -0.025368048 0.29909426 -0.19323339 -0.32059216 0.22097287 0.3456656
-0.059975058 -0.3200249 0.13637643 -3.562451e-05 -0.10110415 0.004978824 -0.42012757 0.06010064
0.03448277 -0.0134203825 -0.12073775 0.060612302 0.012251375 -0.29049674 0.037931178 -0.10034146
0.09347173 -0.35704222 -0.18533674 -0.17057304 -0.026704505 -0.22727874 0.14013542 -0.14111365
-0.19796097 -0.11848991 0.072112106 0.28750962 0.22949615 0.03010502 0.15120608 -0.09154336
0.21779566 -0.031480074 -0.021507446 0.05023911 -0.099838786 0.24960943 -0.0734032 -0.10253207

mlp_extractor.policy_net.2.bias f4 [64]
00000000: 287a 5abb f9ff c7bc d1ef 5abd a3cd 70bc
00000010: 4aaa 54bd 02c6 513c 6db6 a2bc fc3f 00bc
00000020: 1c91 bdbb c5b4 233c 9c32 183d f865 413d
00000030: e5e5 623d 2f8f 4c3a 63a0 36bc 5b46 ea3c
00000040: d409 ed3c ef0c 0b3d b983 643d 0bc6 0fbc
00000050: 0e44 ed3c ebf2 21bc f08f f63c f7e4 8e3c
00000060: 69c4 5cbd ade2 793d bfe4 91bc 991c 5cbd
00000070: 9e41 703d b216 453b a709 733b 3f51 883c
00000080: 304a 053d 0402 9c3a d4ed bc3b 8faf 93bd
00000090: 024e d43c b0a1 ab3c 4a12 2e3d a70a 863c
000000a0: 8721 18bc 0f86 b6bc c6b4 5ebd 98da a6bc
000000b0: 6da0 84bc 7ccb b73d 7d16 123d 6f4d 7c3d
000000c0: 02da 90bb faa5 e53c 2f9b a9bb b7d5 a6bc
000000d0: bc2e 9bbc 51f4 c43b ff62 75bd a93c 72bd
000000e0: fe82 aa3c 79a2 2dbd 01ad e13c 5241 893c
000000f0: de87 fb3c e413 d5ba 421d b93c b417 023c
-0.003333697 -0.02441405 -0.053451363 -0.014697465 -0.051920213 0.012803556 -0.019862378 -0.007827755
-0.0057851207 0.009991829 0.03715764 0.047216386 0.055395026 0.00078033184 -0.011146638 0.028598001
0.02893535 0.03394788 0.055789683 -0.0087752445 0.028963115 -0.009884576 0.030097932 0.017443163
-0.05389825 0.06100719 -0.01780927 -0.05373821 0.058656327 0.0030073342 0.003708461 0.016640304
0.032541454 0.0011902456 0.005765656 -0.072112195 0.025916103 0.020951122 0.04249791 0.016362501
-0.009285337 -0.022280721 -0.054371618 -0.020367905 -0.016189778 0.089743584 0.035665978 0.061597284
-0.00442052 0.028033245 -0.00517597 -0.020365579 -0.018943183 0.00601057 -0.059908863 -0.05913988
0.020814415 -0.042391274 0.027548315 0.01675478 0.030704435 -0.0016256538 0.022596959 0.007940222

mlp_extractor.value_net.0.weight f4 [64, 28]
00000000: 19fe 0a3f 13a5 683f f236 883d 01b8 4d3f
00000010: c0fc 0f3f 5e04 4fbe eedb 873e 17d2 8bbd
00000020: cf93 d1be e295 8c3e 45bd dabe 4bbf 773f
00000030: 1e98 9c3e fdc1 143f 8100 c33e 298f 913e
00000040: 17b3 6cbe 7a3d aabe 6106 95be 63d3 843e
00000050: 4102 7abe e78b 80be fd8c b2be 62af d93e
00000060: 712b 173e d7bc b33d aeba 1dbe 8190 9a3e
00000070: 2b13 263c 8d8a 0dbf 7284 cbbd 4ea6 6b3f
00000080: e4af e8be 4d51 003f 8ba0 cebe 29f9 143e
00000090: 6b9c 5c3f db70 bb3e 921e 2d3f c50d 9a3e
000000a0: 5ecf 9bbe 002f 93be 1be4 1e3f 12cf 953d
000000b0: 51d6 a8be 34a5 e0be b2f0 363e 54ea 463d
000000c0: 7f46 483d ebfd b93e 88b2 a73e 2427 c2be
000000d0: 31bb a23e 93a0 123d 10b3 83be e2a5 1f3e
000000e0: 7f1c 103f e790 0bc0 f6b8 233e 0359 743c
000000f0: dd70 31bf bb5c 02bd 5412 8f3d 8647 29be
00000100: 6832 ba3e ed37 6ebd 2077 82be bd20 a4bf
00000110: d708 e8bd 6930 483e b72f 9c3f 76ed 5f3e
00000120: cb7e 56be a35f 5cbe 90a4 363e 6b21 db3e
00000130: 3f7d e5be f393 903e 4bac eb3e 49f4 32ba
00000140: 85c0 023f 8f20 1f3f 74df 4c3e 2cd9 17bd
00000150: 431b ac3e 5aba 0a40 7ace 833e 8bee 343f
00000160: 4fce bf3e 22cf 2d3f fa7e bdbe 53ea 993d
00000170: cb5e e1be 8381 d6bd 6eed 13bd 7419 a13f
00000180: fb0a 0abf 0d6d 563f ca58 dbbe 4ef4 443e
00000190: 3483 f43d a596 403e 4a38 81be 06e3 37be
000001a0: 6572 823e 8d76 b1be c8bf 58bd ff01 a53e
000001b0: 85ed 54bc 2232 c5be b14b cebe d821 573e
000001c0: 5067 18bd cbbb 48be f781 883e 8892 a2bc
000001d0: 93b2 63bd 8880 c63e a516 e43e 310d 113d
000001e0: 0d44 e5bc 478b dabe 8512 a8be 547f c73e
000001f0: 5dae 973f dddd 093f 6167 3f3e dbba a33c
00000200: e36b a43e 272f 0b3f 0c86 84be f3d0 4f3d
00000210: f187 bf3d fc89 dabd bd3f 093f bae6 9f3e
00000220: 95d4 433e ee67 22bf 99bc d8bd e102 383f
00000230: 999f 5c40 069e e23f 811b 3d3d 4d38 243f
00000240: c88c 98bd 73f5 513e d63b a33e 1ebc fcbe
00000250: 7203 25bf 502d 8e3d 22b1 9a3e 8c28 323f
00000260: eb7e 853f 5772 33bf 07c7 d0be 6d9b ccbd
00000270: 9c54 5f3e 0d09 8ebe 284d 7f3f e03f 7a3e
00000280: 3825 e4be 0f93 b2be 8967 163f edec 9fbe
00000290: 76e3 3fbe 7dbb 3dbe 13e0 223d 93fb 4dbe
000002a0: a992 f53e dae6 973f 086e 8cbc b57e 063f
000002b0: 2790 e2be 58fa 2bbe e211 60be 5db3 ce3e
000002c0: 5b4b fabd 232b 18bf 1bf4 f9be 967b 023e
000002d0: 7869 ae3e cd66 55be 411a 82be fca0 4a3e
000002e0: 299d d13b b18a e6be 864d 84be ce3f 06bc
000002f0: 3458 63be 2aef d33e 7d98 023e a9cd fabe
00000300: fd3e 153f a145 e9bc 478e b2be 024d f3be
00000310: aae5 443f f308 983f 9e0d 27bd 8e41 7bbf
00000320: 1d65 cebe 0128 b83e e7f7 42be 0f6a 82be
00000330: 5337 363e 8201 dbbe 826a 1bbf 2313 673e
00000340: c51a b33e 9c7d e0bd 7bf0 59be 430d 65be
00000350: 7d58 b3bd 6927 f3be 3547 0e3f cdd0 043f
00000360: e578 adbe aecb 003e 0f65 13bd ceec e03e
00000370: 5ac9 4dbf 2fab d33c 746b 7ebe 41f0 cbbe
00000380: 0966 90c0 c3b7 79c0 fb49 0d3c d1dd 413b
00000390: 40b7 ac3b a161 1e39 cdac 56b9 5e13 babb
000003a0: 989e ecbb 62ac 563b 6cc4 943a 95e4 2a3b
000003b0: 5657 073b 6d1b 42bb 7a0f bb39 04a6 c8bb
000003c0: 3b62 25bb f468 2cbb b1d2 aaba 2051 e3ba
000003d0: b6b6 92ba 1b9f 69bb 4d41 55bb 78a3 553a
000003e0: d078 85ba 3271 373b dfa8 d3ba 386a c3ba
000003f0: f9f4 32be 037f cdbb 4b5a 2dbe 91f1 2e3e
0.5429397 0.90876883 0.06651105 0.8035889 0.5624504 -0.2021651 0.2653498 -0.06827181
-0.40933082 0.27458102 -0.42722526 0.96776265 0.30584806 0.581085 0.38086322 0.28429535
-0.23115192 -0.33250028 -0.2910643 0.25942525 -0.24414922 -0.25106737 -0.3487319 0.4251662
0.14762665 0.08776253 -0.15403244 0.30188373 0.010136406 -0.55289537 -0.09937371 0.92050636
-0.45446694 0.50124055 -0.4035686 0.14548172 0.86176175 0.3660954 0.6762477 0.3008863
-0.30431646 -0.28746796 0.6206681 0.07314886 -0.3297601 -0.4387604 0.17865255 0.048563316
0.048895355 0.36326537 0.32753396 -0.37920487 0.3178344 0.035797667 -0.2572255 0.15590623
0.5629348 -2.1807191 0.15988526 0.0149138 -0.6931284 -0.031826716 0.06985918 -0.1653119
0.36366582 -0.058158804 -0.2548151 -1.2822491 -0.11329811 0.19549717 1.2202061 0.21867928
-0.20946805 -0.21520858 0.17836213 0.42798933 -0.44822118 0.28237876 0.46029887 -0.00068265625
0.5107501 0.62159055 0.20007116 -0.037072346 0.3361455 2.167624 0.25743467 0.7067649
0.37462088 0.67894185 -0.37010938 0.07515397 -0.44017634 -0.10473921 -0.036115102 1.2585893
-0.53923005 0.8376015 -0.42841178 0.1923382 0.119390875 0.18807466 -0.25238258 -0.17957696
0.254779 -0.3466076 -0.05291727 0.32228085 -0.012996082 -0.3851481 -0.40292123 0.21009004
-0.0372079 -0.19602887 0.26661655 -0.019845262 -0.055590224 0.38769937 0.44548526 0.03541297
-0.02798655 -0.42684385 -0.3282663 0.3896433 1.1850086 0.5385416 0.1869178 0.01998656
0.3211356 0.54368824 -0.2588352 0.05073638 0.09352101 -0.1067085 0.5361288 0.31230718
0.19124062 -0.63439834 -0.10582847 0.7187939 3.447241 1.7704475 0.046168808 0.6414841
-0.07448727 0.20503788 0.3188159 -0.49362272 -0.6445838 0.069422364 0.30213267 0.6959312
1.0429357 -0.70096344 -0.40776846 -0.099905826 0.2180962 -0.2774128 0.99727106 0.24438429
-0.44559646 -0.34877822 0.5875173 -0.31235448 -0.18739113 -0.18528552 0.039764475 -0.20115499
0.47963455 1.1867325 -0.01714231 0.5253709 -0.44250605 -0.16794717 -0.21881822 0.40371218
-0.12221404 -0.5944082 -0.4881905 0.12742457 0.3406484 -0.20839997 -0.25410655 0.19787973
0.006396909 -0.45027688 -0.25840396 -0.008193923 -0.22201616 0.41393405 0.12753482 -0.4898503
0.5829924 -0.028475584 -0.34874174 -0.4751969 0.7691294 1.1877731 -0.04078447 -0.98146904
-0.40311518 0.3596802 -0.1903988 -0.2547154 0.17794542 -0.42774588 -0.60709393 0.22565894
0.3498136 -0.10961458 -0.21283142 -0.2236834 -0.08757112 -0.47491005 0.55577403 0.51881105
-0.33881298 0.12577698 -0.03598505 0.43930668 -0.80385363 0.025838463 -0.24845678 -0.39831737
-4.5124555 -3.901841 0.008623595 0.0029581676 0.0052708685 0.00015104424 -0.00020473004 -0.0056785783
-0.0072210543 0.0032756557 0.0011350042 0.0026076187 0.0020651422 -0.0029618398 0.0003567895 -0.006123306
-0.0025235552 -0.0026307674 -0.0013032762 -0.0017342903 -0.0011193368 -0.0035647813 -0.0032540143 0.0008149664
-0.00101831 0.0027991054 -0.001614835 -0.0014908975 -0.17476262 -0.0062712445 -0.16928975 0.17084338

mlp_extractor.value_net.0.bias f4 [64]
00000000: 8efe 5b3f c21c bcbe 0712 5d3f c001 bebc
00000010: e8cb 34be eb2b 913f 1974 2f3d 28fd 8d3e
00000020: f67e d540 b939 743e 9da7 343e 64c9 183f
00000030: f98b 563f 5823 713f 634e a93e b88b 51bf
00000040: cb90 bd3f a303 2fbf 187e 673e 5378 513f
00000050: fa90 23bd e80d 80bd ad4d 12c0 1209 a63e
00000060: 61dc acbe 1a8f 113f 5b72 ac3f d410 94be
00000070: 21d8 32bf adf6 9ebe 6f44 23bf 9aff b13e
00000080: cd65 48bf 50b9 97bf 6b2a 453f 43aa 3d3e
00000090: ff78 0c3f 6394 e03e b8db 8dbf bfdd 97be
000000a0: 63b5 61be fe00 9dbd 8dcd c63e e203 223d
000000b0: ea8e 553f 9cb2 843e 506c c7be a8e2 a33f
000000c0: 870f 323f de93 16bf 72dc 043f 91d6 ee3e
000000d0: a3c8 ddbe 7371 1cbb d073 51bf c0c0 0340
000000e0: ff52 09bf d765 1a3f 71da ad3d 3675 b1be
000000f0: dd92 1cbd b545 69bf 1e26 c33e 5845 e0be
0.85935295 -0.3674069 0.8635563 -0.023194194 -0.17655909 1.1341528 0.04283533 0.27732205
6.671748 0.23850144 0.17642064 0.596823 0.8380733 0.94194555 0.33067617 -0.8185382
1.4809812 -0.68364924 0.22606695 0.81824225 -0.039933182 -0.062526524 -2.285991 0.32428795
-0.33761886 0.5685898 1.3472399 -0.2891909 -0.69861037 -0.31047574 -0.63776296 0.3476532
-0.78280336 -1.1853428 0.7701785 0.18521981 0.54872125 0.4386321 -1.1082678 -0.29661366
-0.2204185 -0.07666205 0.38828698 0.039554484 0.83421195 0.25917518 -0.38949823 1.2803545
0.6955494 -0.5881938 0.5189887 0.46648076 -0.43317136 -0.0023871332 -0.8181734 2.0586395
-0.53642267 0.60311645 0.0848893 -0.34659737 -0.038225997 -0.9112199 0.3811502 -0.43802905

mlp_extractor.value_net.2.weight f4 [64, 64]
00000000: 4d43 b9be b65e cbbe 8a6b 2f3f 7320 bbbe
00000010: 24ca 4c3f b120 9dbf f9b0 92be a44b 2a3f
00000020: 7a36 6cc0 e887 bbbe 2d96 0f3f e341 30bf
00000030: 6f4e 5ebb 9a23 51bf bcfb 40bf 397c d0be
00000040: 6ffd 09bf ee9d 0d3f dd5a 3ebd 0581 b7bf
00000050: 708c 40bf 2f80 f33e 8189 e0be 4225 10bf
00000060: a5f5 99bf 08a7 fb3c 31ca 403e 936d 42bf
00000070: 0623 893f aea1 933f 6923 b03f b738 3bbe
00000080: 8851 97bf f8dc 15bf e776 c0be 87e5 a23e
00000090: 7872 efbe fde0 fcbe 9efc 36bf 0732 24bf
000000a0: 2725 97be dd2e 4b3d 77e1 85bf c667 18bf
000000b0: e4be 5c3f f2e3 843f cedc 923f 3d35 c93f
000000c0: 9a63 ae3d 765c 8f3d df97 07be 7e2c 28bf
000000d0: 270a 153f afef 86be 1916 0840 a77d a63d
000000e0: 0220 a13f 0873 963c 98f7 aabf 9b5f b43f
000000f0: 142f 84bf 9f2b f4be 88ef 413e 7bea 7e3f
00000100: 3faf c3bd 8a3d f53f 7e3f 163c 85f4 a7bf
00000110: fcb4 0540 8b24 20bf 52a8 c73f 6ebb c2bf
00000120: 2427 6d40 416f af3f 4f2a b3bf 04a1 0bbf
00000130: 0428 5abe 32ce 4fbf d505 c8be a3ac 3fbe
00000140: bdb3 2740 607c 08bf b1f3 27be 994e b83f
00000150: 05b4 0dc0 21c4 c63f b5ae 423f 2567 283f
00000160: fc58 a4bf 9545 733f 78e4 b7bf 7495 82bf
00000170: bf3b 3bbf ad6e 70bf 2bf3 d6be 3181 c83e
00000180: 5edd a5bf ff07 713e 0998 bf3e 9c77 cbbf
00000190: 833b f73e 377f b03e 66de 3fbe c562 bcbe
000001a0: 60aa 6cbf 3d7c 203f 3f2d 073f 6d96 b3be
000001b0: b3d3 30bf 1fca 6c3e e169 9e3e 5227 3fc0
000001c0: 6a03 993d 8816 5940 eecb 6e3f 3f5f 193f
000001d0: e701 adbe ee43 3a3f a6ca 2e40 95e5 00c0
000001e0: 308e 9e3e bba6 4dc0 3e71 0040 d570 b7be
000001f0: af7a 91be b449 b53e 4dc0 563f 1777 e43f
00000200: e2bb 2dbf 9808 cd3e 200f f5be 696f ad3e
00000210: f1be c63f 324c 65bf e6cc 503f 91de c8bf
00000220: 41e2 fb40 e0a3 733f a70b b5bf 8950 0c3f
00000230: 4d1a 5abf 92aa 59bf 3588 2abf c10c 9dbf
00000240: 52cd 6f3f ba02 d7be ed7d 1bbf cd8a f53e
00000250: 99eb da3f 171e e63f e69d 173c 18e6 b33f
00000260: ae7b 1b3e 85b2 813f e9b5 70bf e681 b9be
00000270: f528 4b3f f281 37bf 20fb d13d 8ccb 063f
00000280: 7803 6a3f b16a ab3f 5035 2cbe 570d c9bf
00000290: 6559 babe 53ba 253f 61c5 903e 4873 10bf
000002a0: 9ec6 9f3e 4124 da3f 07dd 0abd cefc ca3f
000002b0: bb19 35c0 d0ed 003f acaa 9f3e 2c99 8bbf
000002c0: 45b4 3e3f 8692 223f de39 7f3f 2a55 ebbf
000002d0: 634c e8bd 072e f93e 0ac7 523f b96c 96bf
000002e0: 757f 9f3f 2cb0 91bf 152f 003f 4a7f 943d
000002f0: f4bb a5be 27e3 14bd 4002 c73f 7f2a f43f
00000300: b2bf cabe db5f 743f b653 31c0 7166 5dbe
00000310: 7149 a03f 6dd6 1940 912a 6cbe 94d7 4c3e
00000320: 73e8 da40 67c1 053f c6ff 75bf aa7c 10bf
00000330: 06b1 b3bd a305 1840 20eb 2ebf 3bc4 abbf
00000340: 0510 5240 a489 4ebf 6421 30be fea1 6c3f
00000350: 6f30 33bf 4f3c 8c3f 9195 c53e b030 88bd
00000360: ce87 b8bf ac9e 9e3e 66f3 b3bf b57e e9bf
00000370: 7f78 b4bc 63cc 07be ead5 bbbc 0d6b 193e
00000380: 546c 5840 b894 3abf 0ece ebbe eca2 cbbf
00000390: cbb7 7abd 1123 4c3e 52ff 13bf 6597 0e3f
000003a0: 9c30 323e 2285 583f d99f d73e 6d0e 973f
000003b0: 35e1 46c0 cbfa 303f 883b d7be be9f 34bf
000003c0: 638d 643f 11b6 b73e 05db b53f 8cd8 e53c
000003d0: b86e 4dbd 8c65 a43f 8f80 4a3f 9dec 91bf
000003e0: 8ecb 16ba 68a5 903e ae14 a33d a071 043e
000003f0: 96db c03e a937 2ac0 6171 e43f bb6d bd3f
-0.3618416 -0.39720696 0.68523467 -0.36548194 0.7999594 -1.2275602 -0.28650644 0.6652167
-3.690825 -0.36627126 0.56088525 -0.68850535 -0.0033921262 -0.8169495 -0.75384116 -0.40719774
-0.53902334 0.55319107 -0.046473373 -1.4336249 -0.7521429 0.47558734 -0.43854907 -0.5630685
-1.202809 0.030719295 0.1882713 -0.75948447 1.0713813 1.1533716 1.3760806 -0.18283354
-1.1821756 -0.58540297 -0.37590715 0.3181574 -0.4676702 -0.49390402 -0.71479213 -0.64138836
-0.29520532 0.04960524 -1.0459431 -0.59533346 0.86228776 1.0382063 1.1473634 1.5719372
0.08515091 0.070000574 -0.13241528 -0.6569289 0.58218616 -0.2635474 2.1263487 0.08129435
1.2587893 0.018365398 -1.335681 1.4091676 -1.0326867 -0.4768953 0.1893903 0.9957654
-0.0955491 1.9159405 0.009170411 -1.3121496 2.0891714 -0.6255576 1.5598242 -1.5213449
3.705514 1.3705827 -1.3997287 -0.54542565 -0.21304327 -0.81174004 -0.3906695 -0.187182
2.6203454 -0.5331478 -0.16401555 1.4398986 -2.2141125 1.5528604 0.7604783 0.65782386
-1.2839656 0.9502805 -1.4366598 -1.020186 -0.7313804 -0.9391888 -0.41982397 0.39161065
-1.2958181 0.23538207 0.3742068 -1.5895877 0.4828759 0.34472057 -0.18737182 -0.36794105
-0.9244747 0.6268957 0.52803415 -0.35075703 -0.6907303 0.23123978 0.30940154 -2.986775
0.07471354 3.3920002 0.9327992 0.5991096 -0.33790514 0.727599 2.7311187 -2.0140126
0.30967855 -3.2133014 2.0069118 -0.35828272 -0.28413913 0.35407794 0.8388718 1.7848843
-0.6786481 0.4004562 -0.47863102 0.33874062 1.5527021 -0.8956939 0.8156265 -1.5692922
7.871369 0.9517193 -1.4144181 0.54810387 -0.8519638 -0.85025895 -0.66614085 -1.2269517
0.9367267 -0.41994268 -0.6073902 0.4795746 1.7103149 1.7977933 0.0092539545 1.4054594
0.15183899 1.0132605 -0.9402757 -0.36231917 0.7935937 -0.71682656 0.102529764 0.5265434
0.9141154 1.3391935 -0.16817212 -1.5707196 -0.36396328 0.64737433 0.28275588 -0.56425905
0.3120622 1.7042314 -0.033902194 1.58584 -2.8296955 0.50362873 0.311849 -1.0906119
0.7449382 0.6350483 0.99697673 -1.8385365 -0.113426946 0.4866793 0.8233496 -1.175193
1.2460772 -1.1381888 0.5007184 0.07250841 -0.3236996 -0.03634944 1.5547562 1.9075469
-0.39599377 0.95458764 -2.7707343 -0.2162111 1.2522413 2.4037125 -0.23063113 0.20004112
6.840875 0.52248234 -0.96093404 -0.5644022 -0.08773999 2.375344 -0.6832752 -1.341926
3.2822278 -0.8067877 -0.17200238 0.9243468 -0.6999578 1.0955905 0.38590673 -0.066499114
-1.4416444 0.30980432 -1.4058654 -1.8241793 -0.022030113 -0.13261561 -0.02292915 0.14982243
3.3816118 -0.72883177 -0.46055645 -1.5909095 -0.061210435 0.19935252 -0.5781146 0.5569976
0.17401356 0.84578145 0.42114142 1.1801277 -3.1074955 0.6913268 -0.42037606 -0.7055625
0.8927824 0.35881093 1.4207464 0.02805736 -0.050154418 1.284349 0.79102415 -1.1400334
-0.0005752378 0.28251195 0.07962929 0.1293397 0.3766753 -2.6596472 1.78471 1.4799112

mlp_extractor.value_net.2.bias f4 [64]
00000000: e4bc 873d 9c77 5d40 7868 6b40 a665 3d40
00000010: c2b1 0140 5bf6 fe3f d7a4 0dbf eac4 b03f
00000020: 6746 1dc0 a533 16c0 684f 61c0 eea0 c53e
00000030: 5cea 4cc0 5233 80bf 1f9c b4bf 0fc8 a43f
00000040: 2037 5d40 7be7 03c0 e7d5 5440 43c6 783f
00000050: d200 57c0 f4cd 8340 c9d4 81bf 704f a13f
00000060: 7502 2740 d586 d23e de9a 1ec0 f414 4040
00000070: 910a e73f dd6f d5bf e62c 2a40 d028 fd3f
00000080: affd 0c40 6bf6 3dc0 10a5 5240 775c 613f
00000090: 01d1 6dc0 88da 24c0 eff1 793f b7c6 9b3f
000000a0: 79f5 2b40 c3b8 8b40 460a f03f 7ee2 0740
000000b0: 19ed 7840 a44e 50c0 677e 55c0 7d0c 3cc0
000000c0: d795 4340 8500 65c0 1bbf 3640 14bb 3b40
000000d0: abc3 3140 524f 72bf fe32 4fc0 6532 5b40
000000e0: 17f2 70c0 5c36 e33e ed2b 9b3f 41cd 133c
000000f0: 8a2f 6140 ba17 a8bf 3007 91bf 5a83 05c0
0.06627825 3.4604254 3.6782513 2.9593291 2.0264745 1.9918932 -0.5532965 1.3810093
-2.457422 -2.3469021 -3.5204716 0.38599342 -3.2018042 -1.0015662 -1.4110144 1.2873553
3.4564896 -2.0610034 3.3255556 0.97177523 -3.359425 4.118891 -1.0143062 1.2602367
2.609525 0.41118494 -2.4782023 3.0012789 1.80501 -1.6674763 2.6589904 1.977808
2.2029836 -2.9681652 3.2913246 0.88031715 -3.7158816 -2.575838 0.97634786 1.2170018
2.6868575 4.366304 1.8753135 2.123199 3.8894713 -3.2547998 -3.33584 -2.9382622
3.0560205 -3.5781567 2.8554142 2.9332933 2.7775676 -0.94652283 -3.2374873 3.4249508
-3.764776 0.4437741 1.212278 0.009021104 3.5185266 -1.3132241 -1.1330318 -2.086142

action_net.weight f4 [8, 64]
00000000: 2407 dabc 84b6 aabd 40e1 493b 28a3 b9bd
00000010: 77a3 17bd 456c a7bd 6f3c 27be 72b8 593d
00000020: d130 07bd 9ed3 d7bd c3fb a4bd 3a88 653e
00000030: 9d18 1b3e de34 08be f70e ef3d 7089 37bc
00000040: a3b7 0d3e fb16 0d3e 8baa 253c 12aa 09bd
00000050: bc74 a43c 590d d9bd 376f 193c eb41 df3c
00000060: fcf9 1fbb f3e7 9c3d beb1 d9bc acce 21bd
00000070: 1f5c 983d dfde f4bd 4b8d 0bbd 0358 1dbe
00000080: bf37 9e3d 116f d1bc a925 483d 70fc 5ebd
00000090: 03ce c03d de09 28be f518 86bd 03cf cebc
000000a0: c237 f7bd 857f 553d 4092 fcbd 734e 0fbd
000000b0: d688 643d 0ce3 5c3e e7c9 db3c aa4b 023e
000000c0: e1da 343d 18e1 543d aca8 c43d 04a6 47bd
000000d0: e9b9 1dbe 68ba 6d3d 46d9 86bd c80d 543c
000000e0: 4139 acbc 5af5 89bd bd4b a53c d24f 293d
000000f0: 0f3d c63c be53 d0bb ce21 053e df8d 5f3d
00000100: 9b3a bd3d 527b 343c fb86 293c 2f08 58bd
00000110: 22fd 743d 1a48 9cbd e681 073e d0cb 323d
00000120: 9e8d 7cbd 0c5e 7a3d 5e55 f0bb c444 0abe
00000130: 8588 04bd c643 643d 02f8 22bd 5271 cbbd
00000140: 4a53 9cbc 8cde e9bd 92e3 ea3b 1eee c43d
00000150: c218 c2bd 9553 3a3c 0331 15be b809 8bbd
00000160: 044c 833d 6953 a33d 538b 0abb 8144 9dbd
00000170: 88e4 c93d 1f87 8bbd 5bbc c4bd 3b0b a9bd
00000180: b7f1 6bbd 9451 ed3d 9456 d8bc 8ed6 163e
00000190: 2a76 b3bb b83c 89bd ac82 c3bd e797 6b3c
000001a0: 63ff 643d 5912 8bbd 1830 b03d 24fc ee3c
000001b0: bf29 83bd 083a e53b 750b 36bd f334 64bd
000001c0: 2f61 ffbc 717d bb3d 3697 aebd 456d 09bd
000001d0: 75d7 21bb eedc 6d3d 5d3e b63d 08cb 34be
000001e0: a874 e8bc 9df6 36bd c86e 60bd 3861 19bd
000001f0: f992 dfbd 4179 cb3c 3911 003e ee41 14bc
00000200: 4821 e83d a684 c13b 7ae6 753d dc14 073e
00000210: c694 093e e2f6 37bd dae9 ecbd 4299 6d3e
00000220: 2c55 f73d e778 c23d 5b03 32be f232 8ebb
00000230: 5ca5 b13d 5090 dd3d 6639 54bd 8a92 58bd
00000240: 20f5 cabd a5a7 3ebd ed70 69bb ce03 fd3d
00000250: 9640 363d 4390 413d 3c8c 533e 95c5 cc3b
00000260: c728 89bd 73e4 8bbd 567b 17bd 6e82 003d
00000270: 7ebd 7dbd 1415 d33b d60f 2cbd 9f69 a43d
00000280: ae9d 9cbd 28ca 69bd 5f52 f93c f6e0 75bd
00000290: 7d30 ffbd b51b e63d 4229 b7bd 8364 18bc
000002a0: 2017 3e3d 6d3b e3bd 2e21 babc 980d 2bbe
000002b0: b984 05bd e9b6 23bd 6475 91bd 43c7 19be
000002c0: dfee 9d3b fa7c 1f3d 3d4d 8abc 3a66 3f3e
000002d0: 287f 933d 994f 7a3d 25bf ab3b c229 853d
000002e0: 2ec4 193d 9480 bdbd 12ce 17bd ddf7 5b3d
000002f0: c17d 503d 474c 8cbd 2288 03bb 330b 883d
00000300: 0341 8e3d d639 363b 7fe8 a83d 6314 793c
00000310: 82ba 24be da04 8c3c 8f1c 413e ea0a b6bb
00000320: b1dc a3be d64f 66bd cd9f 803c 3b48 1b3d
00000330: 68d5 a63c 0cf3 0abe 8e08 dabb d5ed 17bd
00000340: e61d 49be 95f8 a6bd dc95 6abd bcb0 08bd
00000350: 27ba f23d 5128 233d 51c0 da3d 4ccc b4bd
00000360: 64fa 06bd 3691 b9bd 4f74 85bd 87ec 863d
00000370: fb1e 43bd f3ae 5abd e878 323c bba7 12bd
00000380: b94d 97bb e81c 103e 8ae7 853d f94e 06be
00000390: f750 f63c 3304 3c3b d470 dabc c96c 83be
000003a0: 871a 7f3c c2ad e13c 6e7c c83d e4d1 3dbd
000003b0: 0343 92be 917d 433d 5636 f13d d7cd 3d3d
000003c0: d345 4b3d f676 123d ac06 ecbd d077 cebc
000003d0: 002c a9bd 2bc5 153d 2cdf 2abd 18cd a5bd
000003e0: 1d0b 85bd 8a96 203d c279 8bbd f023 0dbe
000003f0: 383d 38bb 8388 e23d b90f 0c3d 4118 ac3c
-0.026614733 -0.08335593 0.0030804425 -0.09064323 -0.037021127 -0.08174948 -0.16331647 0.053154416
-0.03300554 -0.1053841 -0.08055832 0.22415248 0.15146108 -0.13301417 0.11672776 -0.011202201
0.13839583 0.13778298 0.010111461 -0.033609457 0.020075195 -0.10598249 0.009364895 0.027253112
-0.0024410477 0.07661428 -0.026574012 -0.03950374 0.07439446 -0.11956572 -0.034070294 -0.15365605
0.077254765 -0.025565656 0.04886404 -0.054439962 0.094142936 -0.16410014 -0.06547729 -0.025245195
-0.12071182 0.052123565 -0.123325825 -0.034986924 0.05579456 0.21570987 0.026829673 0.12724176
0.04415405 0.05197248 0.09602484 -0.04874231 -0.1540295 0.0580391 -0.0658441 0.012942739
-0.021023395 -0.0673625 0.020177716 0.04133589 0.024199037 -0.006357639 0.13001177 0.05457866
0.09239694 0.01101573 0.010347123 -0.05274218 0.05981172 -0.0763094 0.13233146 0.043651402
-0.061658494 0.061124846 -0.0073343953 -0.13502795 -0.032356758 0.055728696 -0.0397873 -0.099337235
-0.019082684 -0.114194006 0.007168242 0.0961573 -0.094773784 0.011372467 -0.14569478 -0.06788963
0.06410983 0.079748936 -0.0021140173 -0.07679082 0.09858042 -0.06812882 -0.096062385 -0.08254095
-0.057603564 0.115878254 -0.026408471 0.14730284 -0.0054767327 -0.06701034 -0.09546408 0.014379478
0.05590762 -0.06790609 0.08602923 0.029172964 -0.06404447 0.0069954433 -0.04444452 -0.05571456
-0.03117427 0.091547854 -0.08524935 -0.033551473 -0.0024695073 0.058072023 0.088986136 -0.17655575
-0.028375939 -0.044668783 -0.05479315 -0.03744623 -0.10916705 0.024838092 0.1250657 -0.009048922
0.11334473 0.0059057055 0.060034253 0.13191551 0.13435659 -0.04491318 -0.11568041 0.23202994
0.12076792 0.094957165 -0.17384093 -0.0043395692 0.08674118 0.10818541 -0.051812552 -0.052874126
-0.09910035 -0.046546597 -0.0035620288 0.12354241 0.044495188 0.04725672 0.20658964 0.0062491396
-0.06697231 -0.068306826 -0.036982857 0.031374387 -0.061948292 0.0064417217 -0.04200729 0.08027958
-0.076472625 -0.057077557 0.030434785 -0.060028993 -0.1246042 0.112357534 -0.08943416 -0.009301308
0.046408772 -0.11095319 -0.0227209 -0.16704404 -0.032597277 -0.03996936 -0.071024686 -0.15017419
0.0048197354 0.038937546 -0.016882533 0.1869134 0.072019875 0.061111066 0.005241292 0.06502105
0.037540607 -0.0925304 -0.03706176 0.053703178 0.05090118 -0.06850486 -0.0020070155 0.06642761
0.06945994 0.002780547 0.0824747 0.0152026145 -0.16086772 0.017092157 0.1885855 -0.0055555003
-0.32004312 -0.05622848 0.015701199 0.03791068 0.020365432 -0.13569278 -0.006653852 -0.03709205
-0.19640312 -0.08152882 -0.057271823 -0.033371672 0.11851912 0.03983337 0.10681213 -0.08828029
-0.032953635 -0.090609 -0.06516325 0.06588083 -0.047636967 -0.0533895 0.010893084 -0.03580449
-0.0046174196 0.14073527 0.06538303 -0.13116063 0.030067904 0.0028689026 -0.026665129 -0.25668934
0.015570289 0.027548674 0.09789358 -0.046342745 -0.2856675 0.04772717 0.11777942 0.046338882
0.049627136 0.03575798 -0.1152471 -0.025203615 -0.082603455 0.036564987 -0.04171674 -0.08095759
-0.0649626 0.039206065 -0.06810333 -0.1378324 -0.002811266 0.11061194 0.03419468 0.021007659

action_net.bias f4 [8]
00000000: 7b1b 7b3c f0a1 e0bd e875 8cbc 5001 a5bd
00000010: 7d8d e73d 2d75 263e 0fd7 24bd 50ff e5bc
0.015326376 -0.10968387 -0.017146066 -0.08056891 0.113062836 0.16255637 -0.04024416 -0.028075844

value_net.weight f4 [1, 64]
00000000: eec9 eac1 5525 b8c1 20ae 7bc1 7e13 c5c1
00000010: c325 6ac2 6e96 cdc1 8f5d 3842 7bd3 07c2
00000020: 9561 a141 0f05 8e41 6186 8d41 98af fdc1
00000030: ee89 cb41 6945 1d42 13c5 3642 0e46 01c2
00000040: 7810 94c1 cc32 b041 42bf 98c1 e5ae 39c2
00000050: c12b 8f41 7c43 93c1 cdb9 3a42 1713 0ec2
00000060: 41f9 a6c1 9528 b3c1 5499 b541 e808 92c1
00000070: c4ca 93c1 6cc0 9441 deba 99c1 dcd7 e5c1
00000080: c34c 83c1 a4c9 9d41 b8c4 91c1 e2b9 11c2
00000090: 00b9 6641 c692 8241 7bb9 4dc2 910f ddc1
000000a0: 0b71 8fc1 a144 89c1 6f38 c6c1 42ed b3c1
000000b0: 6c3c 94c1 5618 a741 ca0e b241 2091 8e41
000000c0: ae90 a1c1 aa67 a441 7a1c 99c1 262c 93c1
000000d0: e202 8fc1 e248 3542 7fae 8e41 aeb1 8ec1
000000e0: 502e 8f41 c8d2 c4c1 af37 46c2 a9ae ca41
000000f0: db09 b3c1 20b1 0942 c5f0 0942 97b1 3142
-29.348598 -23.018229 -15.730011 -24.634518 -58.536877 -25.698452 46.091366 -33.956524
20.172647 17.75247 17.690615 -31.71074 25.442348 39.317783 45.692455 -32.318413
-18.508041 22.024803 -19.093388 -46.420795 17.896364 -18.407951 46.681446 -35.518642
-20.871706 -22.394815 22.699867 -18.254349 -18.474007 18.593956 -19.216244 -28.7304
-16.412481 19.723457 -18.221054 -36.431526 14.420166 16.321667 -51.431133 -27.6326
-17.930197 -17.15851 -24.777555 -22.490849 -18.529503 20.886883 22.257221 17.820862
-20.195644 20.550617 -19.138905 -18.396557 -17.876408 45.321175 17.835203 -17.836758
17.897614 -24.60292 -49.55438 25.335283 -22.379812 34.422974 34.485126 44.423428
